…
se_uri":"https://localhost:8080/"},"id":"3ONqQS-NQgAL","executionInfo":{"status":"ok","timestamp":1668699798087,"user_tz":-540,"elapsed":2991,"user":{"displayName":"김현태","userId":"03086644637186436559"}},"outputId":"71db2cea-c690-4cb0-f143-1ba6f0078594"},"execution_count":4,"outputs":[{"output_type":"stream","name":"stdout","text":["Model: \"sequential\"\n","_________________________________________________________________\n"," Layer (type)                Output Shape              Param #   \n","=================================================================\n"," conv2d (Conv2D)             (None, 32, 32, 32)        896       \n","                                                                 \n"," conv2d_1 (Conv2D)           (None, 32, 32, 32)        9248      \n","                                                                 \n"," max_pooling2d (MaxPooling2D  (None, 16, 16, 32)       0         \n"," )                                                               \n","                                                                 \n"," dropout (Dropout)           (None, 16, 16, 32)        0         \n","                                                                 \n"," conv2d_2 (Conv2D)           (None, 16, 16, 64)        18496     \n","                                                                 \n"," conv2d_3 (Conv2D)           (None, 16, 16, 64)        36928     \n","                                                                 \n"," max_pooling2d_1 (MaxPooling  (None, 8, 8, 64)         0         \n"," 2D)                                                             \n","                                                                 \n"," dropout_1 (Dropout)         (None, 8, 8, 64)          0         \n","                                                                 \n"," conv2d_4 (Conv2D)           (None, 8, 8, 128)         73856     \n","                                                                 \n"," max_pooling2d_2 (MaxPooling  (None, 4, 4, 128)        0         \n"," 2D)                                                             \n","                                                                 \n"," dropout_2 (Dropout)         (None, 4, 4, 128)         0         \n","                                                                 \n"," conv2d_5 (Conv2D)           (None, 4, 4, 128)         147584    \n","                                                                 \n"," max_pooling2d_3 (MaxPooling  (None, 2, 2, 128)        0         \n"," 2D)                                                             \n","                                                                 \n"," dropout_3 (Dropout)         (None, 2, 2, 128)         0         \n","                                                                 \n"," conv2d_6 (Conv2D)           (None, 2, 2, 256)         295168    \n","                                                                 \n"," max_pooling2d_4 (MaxPooling  (None, 1, 1, 256)        0         \n"," 2D)                                                             \n","                                                                 \n"," dropout_4 (Dropout)         (None, 1, 1, 256)         0         \n","                                                                 \n"," flatten (Flatten)           (None, 256)               0         \n","                                                                 \n"," dense (Dense)               (None, 128)               32896     \n","                                                                 \n"," dropout_5 (Dropout)         (None, 128)               0         \n","                                                                 \n"," dense_1 (Dense)             (None, 10)                1290      \n","                                                                 \n","=================================================================\n","Total params: 616,362\n","Trainable params: 616,362\n","Non-trainable params: 0\n","_________________________________________________________________\n"]}]},{"cell_type":"code","source":["model.compile(loss='sparse_categorical_crossentropy', optimiz
…
